model.tflite (tflite, 761852 bytes, 16 tensors)

sequential_2/conv2d/Relu;sequential_2/conv2d/BiasAdd;sequential_2/conv2d/Conv2D;sequential_2/conv2d/BiasAdd/ReadVariableOp f4 [32, 3, 3, 3]
00000000: 46e5 9037 1b13 f2b8 9095 ef39 bd81 39b9
00000010: 1c6b 75b9 fe8b c3b8 2730 27ba 026c 1fb9
00000020: c72e 2cba 781b 06ba cf5c 4a39 0afb 5f39
00000030: 148f 5ab9 9059 64ba 8deb eeb9 c478 1838
00000040: 28c5 3aba e5c2 5839 c7ac 1d39 3748 2539
00000050: de7e 0cba a9ad 3eba 6cc5 e8b9 9d85 fdb8
00000060: d45d deb8 4060 8a39 e78f 30ba 5389 7cb9
00000070: 3aaa 84b9 180c fbba 2e52 a638 8453 2132
00000080: 02d7 ccba 1357 8f38 63d7 4338 ce83 9dba
00000090: 23eb b9b8 e6be 08ba ebfc 0dbb 1138 8739
000000a0: 8080 8db9 a0ab 38bb 0222 2eb9 c79c 2ab9
000000b0: 4e81 0fbb 13fd 043a 90c2 22ba e776 08bb
000000c0: 4001 56b9 62b1 01ba d59a 29bb ded5 2dba
000000d0: 8491 f9b9 9aef 01bb 0ce2 0fba 0005 6c3a
000000e0: b60d 00ba 6b49 95b9 3626 8c3a 209e 8e36
000000f0: bdbf d9b9 0b37 4d3a d06f bcb9 62c4 41b8
00000100: 4d96 353a 9733 5cba cadc 21ba bf73 2638
00000110: 868a 79ba 104f d9b9 5f88 7f3a 2ab8 1fba
00000120: c0aa 39b9 8582 983a 35bb 7cba 2d74 5a39
00000130: 5ef8 853a 3e61 bbb9 6463 aab9 a016 0a3a
00000140: a88b 98b9 0c4e f6b9 bf09 84ba 503d 91ba
00000150: f709 4dba c7d1 ecb9 2cd9 b9ba 1a40 bfba
00000160: d2ca 9eba 397e ebba 112b c53a 76a4 863a
00000170: 2b03 843a b00a 14ba 5ac2 26ba 17e0 3bba
00000180: 3e05 7e39 db7a 053a eb3e 3538 fcf9 35ba
00000190: 202f 67b7 1aca a1ba 2c5f 41b9 3485 8b37
000001a0: 8ccd a5ba 8d0c 5bb7 0ec3 fb39 990f 45ba
000001b0: 3ae6 3b3a bcc6 33b9 bb6e 6c3a 1af9 26b8
000001c0: a9ce cbba 726f 00ba 7268 efba 56fa 41bb
000001d0: 33b6 0abb c6e5 563a b23e a6ba 7840 8eb9
000001e0: c235 0d38 949c 78ba 7e19 d038 ac40 20ba
000001f0: c8b3 d4ba 225d c4ba 1e19 5c3a 2891 aab9
00000200: 172e 34b8 b301 733a 4fcf 24ba d51d 97b9
00000210: c38b f939 6ae8 73ba a793 a939 5c61 55b9
00000220: 8f35 90b9 acc9 3bb9 dc78 6aba 1b13 213a
00000230: 977a 93b9 4745 62ba 9bc4 153a cadd 9438
00000240: 2254 1bba 59a4 c539 3b9d d4b9 a0cc c3b9
00000250: 9583 0c3a 1109 0939 a6c8 3fb9 bcff 263a
00000260: 186f 8338 cf1f 81ba 98af 523a 4db8 cdb9
00000270: 20b9 60ba b2aa 553a 5ed4 61b9 2d31 31b8
00000280: 7369 4e3a 8672 a7b8 a0fb c738 638c 0bba
00000290: a543 12b9 995d 8039 b7e2 e3b8 8b18 13ba
000002a0: c9dc 493a 6908 b0b9 d3ba 2fba 0a79 473a
000002b0: 00c6 5dba d26c 0cba 7138 4f3a cd0d 90b9
000002c0: 3c75 ccba cb9e 293a b8c5 30ba cad3 aaba
000002d0: 469d b238 c671 18ba fd06 efb9 a945 e539
000002e0: 2ef6 32ba 2a67 67ba 4a1c 7e39 7e3e a2b8
000002f0: a276 87ba c9de 5aba e513 5cb8 1595 1fba
00000300: 35e0 3fba 9590 92b9 949a 6f39 1134 c0b9
00000310: 0c4e 97b8 bac7 8039 69d7 ccb9 0609 b838
00000320: c194 8139 adc5 38ba 1865 3239 3ca5 6db9
00000330: 2913 27ba 8ccf 99b9 3bce c738 2164 29b9
00000340: 5598 42ba c9d3 f437 d861 2fba 7263 1aba
00000350: 99b4 de38 465d adb9 1a74 9eb9 18b9 7f39
00000360: 17ca e4ba 3ee5 bab7 9c9d 6aba dc7b 84ba
00000370: 5c09 243a c39c 43ba dc1b 03bb 2316 0c3a
00000380: 30c5 90ba 59e1 e5ba 9ff7 d739 bd41 9bba
00000390: 4bfc 37ba 3f74 063a 436f c4b8 3674 b2ba
000003a0: df4b d239 7923 85ba 0aed 74ba 9fd1 bd37
000003b0: 676b 58ba 4b26 ddba c5c5 b639 9f7e 21ba
000003c0: 2f5b 90ba 7d83 453a 2018 aab9 9af9 99b8
000003d0: 07b0 f537 d507 0939 cce2 d2b9 c3ad dfb9
000003e0: a3a5 e8b9 f5b5 ccb9 a05c 06ba 4d80 5bb9
000003f0: 4bf0 6e38 4ec2 64b9 bbfe aa38 638d 95b8
1.7272901e-05 -0.00011543018 0.00045697065 -0.00017691306 -0.00023404922 -9.3244e-05 -0.00063777197 -0.00015203658
-0.00065682497 -0.00051157875 0.00019298795 0.00021360457 -0.00020843401 -0.00087108556 -0.00045570396 3.6352096e-05
-0.00071247155 0.00020671969 0.00015037051 0.00015762528 -0.0005359481 -0.0007273802 -0.0004439758 -0.000120888675
-0.00010603262 0.00026393123 -0.00067353103 -0.0002408375 -0.0002530383 -0.0019153384 7.930804e-05 9.390423e-09
-0.0015628042 6.83499e-05 4.6692217e-05 -0.001201743 -8.865285e-05 -0.00052164344 -0.0021665643 0.0002579098
-0.00026989356 -0.0028178468 -0.00016606602 -0.00016270867 -0.002189714 0.00050731114 -0.00062088016 -0.0020822824
-0.00020409096 -0.00049473916 -0.002587964 -0.0006631295 -0.000476014 -0.0019826652 -0.00054887007 0.00090034306
-0.00048848556 -0.00028474195 0.001069254 4.250338e-06 -0.00041532321 0.00078283314 -0.0003594146 -4.619768e-05
0.00069269986 -0.00084000215 -0.0006174563 3.968528e-05 -0.0009519238 -0.00041448371 0.0009747799 -0.0006092811
-0.00017706584 0.0011635578 -0.0009640933 0.00020833379 0.0010221114 -0.0003573987 -0.00032498979 0.00052676536
-0.0002909575 -0.00046978926 -0.0010073705 -0.0011080895 -0.0007821614 -0.00045169724 -0.0014179102 -0.0014591247
-0.0012114889 -0.0017966694 0.0015042742 0.0010272402 0.0010071745 -0.00056473445 -0.0006361358 -0.0007166876
0.0002422528 0.0005091854 4.321236e-05 -0.00069418526 -1.3779645e-05 -0.0012343556 -0.00018441369 1.6632119e-05
-0.0012649759 -1.3056339e-05 0.00048019778 -0.0007517278 0.00071677903 -0.00017144805 0.00090191857 -3.9809478e-05
-0.001554926 -0.0004899419 -0.001826538 -0.0029598675 -0.0021165728 0.0008197691 -0.001268348 -0.00027132384
3.3667086e-05 -0.0009483781 9.922961e-05 -0.00061131525 -0.0016227895 -0.0014981369 0.0008396077 -0.00032533077
-4.295827e-05 0.00092699676 -0.0006286995 -0.0002882319 0.00047597112 -0.0009304347 0.00032344201 -0.00020349532
-0.00027505725 -0.00017908838 -0.0008944401 0.00061445095 -0.0002812936 -0.0008631539 0.00057131954 7.0985014e-05
-0.00059253175 0.00037697217 -0.00040552937 -0.00037345756 0.00053601834 0.00013068716 -0.00018289927 0.0006370505
6.2672596e-05 -0.0009851399 0.000803703 -0.00039237962 -0.00085725076 0.0008150741 -0.00021536785 -4.2245887e-05
0.00078739895 -7.984512e-05 9.535928e-05 -0.00053233485 -0.00013948845 0.00024483798 -0.000108664324 -0.0005611262
0.0007700441 -0.00033575602 -0.0006703559 0.0007609284 -0.0008459985 -0.00053567917 0.0007904834 -0.00027476103
-0.0015598903 0.00064705004 -0.00067433296 -0.0013033089 8.516996e-05 -0.00058152934 -0.0004559084 0.00043730185
-0.0006826845 -0.00088273233 0.00024233866 -7.736402e-05 -0.0010335038 -0.00083492376 -5.2470616e-05 -0.00060875836
-0.0007319481 -0.00027955012 0.00022850401 -0.00036659886 -7.2147785e-05 0.0002456287 -0.00039070405 8.7754845e-05
0.00024715628 -0.0007048499 0.00017013063 -0.00022663636 -0.00063733995 -0.0002933707 9.527473e-05 -0.00016154397
-0.0007423212 2.9185687e-05 -0.00066903 -0.00058894523 0.00010619424 -0.00033066625 -0.0003022261 0.00024387648
-0.0017455247 -2.2279677e-05 -0.0008949877 -0.0010107714 0.0006257498 -0.0007462019 -0.002000562 0.0005343875
-0.0011045095 -0.0017538472 0.00041192488 -0.0011845153 -0.00070184906 0.00051290164 -9.3667324e-05 -0.0013614956
0.0004011085 -0.0010157666 -0.0009343183 2.2628168e-05 -0.000825575 -0.0016872374 0.00034861095 -0.00061605306
-0.0011013503 0.0007534547 -0.000324429 -7.3421004e-05 2.9288245e-05 0.00013068256 -0.00040223298 -0.00042663337
-0.00044373897 -0.0003904548 -0.00051254965 -0.00020933263 5.6967412e-05 -0.00021816159 8.153679e-05 -7.131209e-05

sequential_2/conv2d/BiasAdd/ReadVariableOp f4 [32]
00000000: db40 8bbd d93a 823e fe92 de3c edba 023d
00000010: ec43 a6bc fd78 f3bd 8db7 853e 9061 fabd
00000020: 8e0d de3c 133a 88bd f80c 383d e7be 29be
00000030: e992 11be 16ff 9abc 88f3 d4bd 49f9 ea3c
00000040: e728 b9bd 367a 803e 0b9f cebb bcd2 203d
00000050: de12 013e 1e5f 25bd 83c9 75bc 6b24 49bc
00000060: 85f9 1f3e 41ee 413e 464e 603d 5319 b9bd
00000070: cca3 1cbc 4e75 623e 8803 003e dea1 c5be
-0.067994796 0.25435522 0.0271697 0.031916548 -0.02029606 -0.11888311 0.261166 -0.1222564
0.027106073 -0.06651702 0.044934243 -0.1657673 -0.14216198 -0.018920463 -0.103980124 0.028683322
-0.09041005 0.2509324 -0.0063055805 0.039263472 0.12604854 -0.040373914 -0.015001657 -0.012276749
0.15622528 0.18938543 0.054762147 -0.09038033 -0.009560537 0.2211506 0.12501347 -0.38600057

sequential_2/conv2d_1/BiasAdd/ReadVariableOp f4 [64]
00000000: a3e7 03bd dbdb a3bd d0af a9bd 35c9 2c3e
00000010: a615 6fbd 0a0c cabd 25b8 29be 2757 19bf
00000020: 4cdf 8c3d f65b 01bd 410e d93d 2efb 08bd
00000030: f87e 30bd 7eca a2bd 0ace 913e 00d9 03be
00000040: c69a a33d ec08 22bd 4f80 bcbd 0969 febd
00000050: 72b4 30bd 3380 86bd 0e9f 38bd b3da 89bd
00000060: e89c c93d f560 6abd a264 57bc 859e 42bc
00000070: 1e8c 69bc ce48 53bb abf5 1fbd d5ba 4ebd
00000080: 3071 aabd 88a8 0ebe 6d13 b9bd a3d5 97be
00000090: 30e9 34bd d1a8 e4bc 3bac b6bd d7c3 c4bd
000000a0: 7502 b1be 067e 4dbd 1c04 4abe fb7a 72bd
000000b0: e8bd 31be 69e4 81bd 6368 94bd 901b e1bd
000000c0: b6d8 f1bd 18cf 41bd 7320 f53d d352 8dbd
000000d0: e760 a8ba 3d1b 363d cb84 073c e425 b0bd
000000e0: 437c 19be 3f01 fd3c bbf8 113e 5a94 8fbd
000000f0: b652 2ebd 3abb e2bd 3237 cabc bc6f 83bd
-0.032203328 -0.080009185 -0.08285487 0.1687363 -0.058370255 -0.098655775 -0.16574152 -0.5989861
0.06878528 -0.03158184 0.10598422 -0.03344267 -0.043089837 -0.079487786 0.28477508 -0.12875748
0.07988505 -0.03955929 -0.092041604 -0.124223776 -0.043140836 -0.06567421 -0.04507356 -0.06731167
0.098443806 -0.05722137 -0.013146551 -0.011878614 -0.014254598 -0.003223944 -0.039052647 -0.050471146
-0.0832237 -0.13931477 -0.09036908 -0.2965518 -0.044167697 -0.02791253 -0.08919569 -0.09607666
-0.34572187 -0.050169013 -0.1972813 -0.059199315 -0.173576 -0.06342394 -0.07246473 -0.10991585
-0.118089125 -0.04731664 0.1196908 -0.06900563 -0.0012846262 0.04445957 0.008271406 -0.08600977
-0.14988808 0.030884383 0.1425504 -0.07010718 -0.042559348 -0.11070867 -0.024684522 -0.06417796

sequential_2/conv2d_2/BiasAdd/ReadVariableOp f4 [64]
00000000: 9ba9 4f3e 564b 84bd b86c 70bd 6587 b7bb
00000010: a756 31bd b7ba 51be f0e3 813c aa3e 3fbd
00000020: 25bd d8bd 27dd b9bd 516a f4bd de61 1bbd
00000030: 3502 bfbc aca4 7bbd 621e 8fbd 007c 64bd
00000040: ff63 5e3d 6dd2 b33d 897e b9bd 0fa2 debd
00000050: 36d2 73bd df8d 62bd 0f59 69be ba5a 48bd
00000060: 3eca 79bd 3c34 54bd da21 6fbd 2836 bdbd
00000070: 8cbd aa3d 9b79 81bd 7958 e3bc cee4 0bbe
00000080: 37aa 683e e54a 9cbd e87d 07bd be3e 91bc
00000090: 326c 80bd d170 9bbc 3dd5 f43d 2253 72bd
000000a0: 80ca 59bd 5a2a 84bd 8922 a6bd 423b 96bd
000000b0: d003 9ebd b73d 163d 00db c1be 6580 22be
000000c0: 90f0 c5bd 38d5 21be 6c6c c5bd 98ed 243e
000000d0: ee59 2ebe d4c2 8abd c002 71bd a4da 5ebd
000000e0: 4909 68bd a707 d6bd 2b69 9abd 60e6 f9bd
000000f0: 1bc9 71bd 37a1 d2bc 5198 80bc 0941 95bd
0.20279543 -0.06459682 -0.058697432 -0.005600857 -0.04329553 -0.20481382 0.01585576 -0.04669062
-0.105829515 -0.090753846 -0.11934341 -0.03793513 -0.023316482 -0.06143634 -0.06988217 -0.055782318
0.054294582 0.0878037 -0.09057338 -0.10870754 -0.059526645 -0.05531108 -0.2278788 -0.04891465
-0.06098389 -0.051807627 -0.058381893 -0.09238845 0.083369344 -0.063220225 -0.027752148 -0.13661501
0.22721182 -0.076314725 -0.033079058 -0.017730113 -0.062706366 -0.018974693 0.119547345 -0.059161313
-0.053171635 -0.064533904 -0.08112056 -0.07335521 -0.07715571 0.03667995 -0.37862396 -0.15869291
-0.09665024 -0.15803993 -0.096398205 0.1610626 -0.17026493 -0.06775442 -0.058840513 -0.05440773
-0.05664948 -0.10450678 -0.075395904 -0.12202144 -0.05902968 -0.025711639 -0.01569763 -0.07287795

sequential_2/conv2d_3/BiasAdd/ReadVariableOp f4 [64]
00000000: e4d1 f0bd 285d fcbd 6f2b 213c 15b4 cfbe
00000010: bc87 c2bd 830f ddbd ff13 91be da91 11bd
00000020: d74b afbd e4f4 12be 2739 abbe 2d5a 27be
00000030: 9345 c8bd b6cb 7cbe b6ea 0b3e 8138 89bd
00000040: 7737 cf3b 4278 dcbb 27a2 4ebd 6d2f afbd
00000050: f672 8abe 52d3 2f3e 2a6f de3d 1110 43bd
00000060: 58b2 923e fecc 3f3e 9dba 013e a701 6fbe
00000070: 34d2 833e 6693 1cbe 6899 72be 5d24 703e
00000080: 0d97 5bbe 17b1 bf3e d7c9 cfbd 4003 aebd
00000090: 5244 44be 333a 00bd 4219 c0bd 443a f7bd
000000a0: 8d75 4bbe faad acbc ec56 cf3c 9089 b6bd
000000b0: 8d23 6b3e cec4 9abc 0a93 4e3c df84 953e
000000c0: d512 ecbc 24ec 81be 8b21 cbbd a4b5 6ebe
000000d0: 343d 9dbc 2f99 96bd eb7e e3bc c84a dd3e
000000e0: 01d0 4ebd aac4 ccbc c8d2 a4bd 34a1 b3bd
000000f0: 2e08 1e3e 4bbb 9ebd b7f9 593e c783 bfbe
-0.117587835 -0.12322456 0.0098370155 -0.4056708 -0.094985455 -0.10793974 -0.28335568 -0.035539486
-0.08559387 -0.14351231 -0.3344204 -0.16342993 -0.09778895 -0.24687085 0.13663754 -0.067002304
0.0063237506 -0.006728203 -0.05044761 -0.085539676 -0.27040833 0.17170456 0.108610466 -0.047622744
0.2865169 0.18730542 0.12668844 -0.23340474 0.2574631 -0.15290603 -0.23691332 0.23451371
-0.2144434 0.37439796 -0.1014592 -0.08496714 -0.19166687 -0.031305503 -0.093798175 -0.1207166
-0.19869061 -0.021079052 0.025310002 -0.08912957 0.2296278 -0.018892672 0.012608299 0.29202935
-0.028817574 -0.25375473 -0.09918507 -0.23311478 -0.019194223 -0.07353436 -0.02777048 0.43221116
-0.050491337 -0.02499612 -0.08048016 -0.087709814 0.15432808 -0.07750567 0.21286665 -0.37405226

sequential_2/conv2d_4/BiasAdd/ReadVariableOp f4 [64]
00000000: b36a 833d 4d75 0fbe 85d6 3d3d eaf3 9abd
00000010: 1c26 85ba d3c7 59be 5c3a 333d b166 a83e
00000020: ae78 b43d 5357 a1bd 542a edbe e00f 97bd
00000030: e76d 80bd f380 ae3d 22ea ccbd 350c 1bbe
00000040: b52c 1ebe a328 fd3e 95e2 b73e 9f0b 113d
00000050: 0ce4 ad3e 9e36 2f3d 3a1a e0bd 550e dabd
00000060: 854f 71bd ddd6 e73d 7926 5d3e 6602 98bd
00000070: 971c c3bd 8698 133e 543d d93e 77f7 88be
00000080: d2dd 53be c46f d9bd abf3 acbc ce02 dfbe
00000090: 9fa9 7abd edc1 97bc 8246 db3e 461e 8fbd
000000a0: a0b2 ad3d 248e 253f a4ab 193e d933 2dbe
000000b0: b91e 23bd 0ae6 11be 53b4 57be 7078 b8bd
000000c0: 77ae 1d3e 4581 97bd 1f46 d43d bc59 973e
000000d0: 33bc a6be 7693 2ebe 035d 19bf 5548 9cbd
000000e0: e1de 86bd 5e33 bfbd dcbd 5f3e c152 9dbd
000000f0: 0488 bc3e 0fce 13be 32fe 013f d5bf 03be
0.06416836 -0.1400959 0.04634716 -0.07566054 -0.0010158452 -0.21267633 0.043756828 0.32890847
0.0881208 -0.07877984 -0.46321356 -0.07376075 -0.06270962 0.08520689 -0.10005595 -0.15141375
-0.15446742 0.49445066 0.35915056 0.035411473 0.33963048 0.042776696 -0.10942502 -0.10647265
-0.058913726 0.11320279 0.21596707 -0.074223325 -0.095269375 0.14413652 0.42429602 -0.267513
-0.20690086 -0.10617021 -0.021112284 -0.43556827 -0.06119692 -0.018525088 0.4282723 -0.06988196
0.08481336 0.64670014 0.15006882 -0.1691431 -0.03982422 -0.14247909 -0.21064882 -0.09007347
0.15398584 -0.07397703 0.10364937 0.2956065 -0.3256546 -0.1704844 -0.5990755 -0.07630984
-0.065854795 -0.093359694 0.2184977 -0.076818 0.36822522 -0.14434074 0.50778496 -0.12866147

sequential_2/conv2d_5/BiasAdd/ReadVariableOp f4 [64]
00000000: 8cd5 3c3e a189 7cbd d973 9ebd 1878 f83d
00000010: 51aa b8bd 97c2 2a3e 6b14 54bd 374d 8d3e
00000020: 78a7 00be 2086 06bd 17f5 af3e abfa ce3c
00000030: 68e8 86bc 1e4b b4bd b6a3 e23e cc32 5c3e
00000040: f4ce 52bd ef9e b4bc 5ceb 25bd 83cb 96bd
00000050: 56e0 08be 72dd 5c3e 4b7f 8e3d 3c6a 713e
00000060: d072 5e3e 6812 aebd 450f 99bd 3373 813c
00000070: 1dd5 bf3e 4351 9f3e 4537 78be f436 e03e
00000080: 846e 623e a658 a53e ad72 0fbd 6aaa 2dbd
00000090: 58d5 89bc 9fcb e13d 50a5 593c 2609 f8bc
000000a0: a542 a2bd 45c8 d6bc 83ca 1abd f904 35bc
000000b0: 24a9 bbbd 4b43 293d 1311 96be 2fce b53e
000000c0: 4acb 4cbd bd2d 8dbe d911 a9be fcfb 323f
000000d0: d3a7 bd3d 955c 04bf 1920 aabd 1a81 f03d
000000e0: cf10 5dbd 4c4f d83e c2d2 e73d 56f3 a7bd
000000f0: 685a 24bd 0e66 2dbe 4404 10be 67f4 da3d
0.18440837 -0.06165469 -0.0773694 0.12132281 -0.0901686 0.16675793 -0.051777285 0.27597973
-0.12563884 -0.032842755 0.34366676 0.025266012 -0.016468242 -0.0880339 0.44265527 0.21503752
-0.051466897 -0.022048442 -0.04050766 -0.073630355 -0.13366827 0.2156885 0.06957873 0.23575681
0.21723485 -0.084996045 -0.074736156 0.015802002 0.3746728 0.31116685 -0.24239834 0.43791926
0.22112471 0.32294196 -0.035021473 -0.042398848 -0.016825363 0.11025166 0.0132840425 -0.0302778
-0.07922868 -0.026218543 -0.037790786 -0.011048549 -0.091631204 0.04132394 -0.29309902 0.35508868
-0.04999856 -0.27573958 -0.3302143 0.6991575 0.092605256 -0.5170377 -0.083069034 0.11743374
-0.053971108 0.42248 0.11319496 -0.082007095 -0.04012528 -0.16933462 -0.14064127 0.10691147

sequential_2/conv2d_1/Conv2D f4 [64, 3, 3, 32]
00000000: ebda 873c 34a2 81bd a107 77bd 673f 72bd
00000010: 7e0c a0bd 23a6 ba3c 177e 66bd f5e5 73bd
00000020: c3b8 423b a69f e1bc 1dfb f93c c317 57bd
00000030: f444 8dbc 695f 9f3d edf2 c8bc 6079 18bd
00000040: 8d64 22bd 9fe1 a1bd 1e1e 72bd e6ab a8bd
00000050: d3dd 91bc deaa 4e3d 54de ae3b 6658 adbd
00000060: 1922 e53c 6d17 923d 6d07 7e3d 3f0c 923c
00000070: 1f86 01be c352 aabd b8cc 53bd 443b bbbd
00000080: 2855 0f3c 3bac 8cbd 88c9 443c 42f2 8e3d
00000090: f306 2dbd 94d8 5ebd a4ce 2f3c 6e57 3c3b
000000a0: 86ce 893d 8485 95bc d714 8fbd 18ee c23c
000000b0: 6c96 483d cfdd 2d3c 5d00 05bd 9abb 32bd
000000c0: 08dc b3bd d6ac 7e3d 486b 07bd b59d aabc
000000d0: fd54 62bd d9f3 9e3d 423c f63a 710f 9a3c
000000e0: 3aef efbd cdc9 063d 153f 93bd faa6 6c3c
000000f0: b200 01bb 2eb5 f63b 2946 10bc bb57 33bc
00000100: 921d 35bd 66b5 ef3a 918e 7a3b 630a abbc
00000110: f143 303d 59a2 65bd 51af 22bd b8ea 2dbd
00000120: 7305 223d fce5 113c 5cb8 d4bc 1ef3 83bc
00000130: da9c 4dbd 2715 bbbd 656b 313b 4953 9ebd
00000140: ec99 0d3d 0cb5 89bd 2a9f 4f3c 1eb0 9bbd
00000150: a63b 8ebd 0b03 88bd 68fa 123d 521a 96bd
00000160: df97 a6bc df7f 24bd acd7 faba 5f62 f93c
00000170: a3f7 e7bd c953 10bd 5349 19bd 6e07 cebc
00000180: dc4a 893c c242 a6bd 91b3 63bd c569 9cbc
00000190: ab0b 433c 85d5 1e3d 8572 c0bc 456f 7f3d
000001a0: 2391 2a3d 7768 903c 2280 acbd 8995 9ebc
000001b0: ac65 3e3b 4413 5a3d 1b45 0ebd 4040 eabb
000001c0: 6f89 1a3d 7547 cabd 920b 403d ceda 463c
000001d0: f80c abbd 8aa1 84bd e7e5 49bb 5b84 9b3d
000001e0: d767 57bd ae0a 9a3d 16e7 2b3d 1a8d 94bd
000001f0: aac0 23bd 0a4a 6bbd e046 cabd 4f2b 35bd
00000200: d324 66bd e596 bfbd 51f8 d2bb 9e4d 7b3c
00000210: 1eaf 8cbd 5909 dabc 32e9 90bd ac11 bd3c
00000220: 2638 86bd 567e bc3c 9160 e63c 8729 9abd
00000230: 81ce e5bc 252e 07bd 49dd c63c 3622 ebbc
00000240: 6d2f 043b 88fa 24bd 9830 873d f1e5 013d
00000250: 28c1 a6bd 5ef5 a63d c53a 52bd 83d6 d4bc
00000260: 3453 b2bd 3785 7c3d c643 413d cf45 8f3d
00000270: 88a7 cd3b 77a8 43bd 84c9 bf3c 7cdf 4bbd
00000280: e266 813d 094d 7b3d 83ad a3bd 913d 2cbd
00000290: 8171 3fbd 0292 d83c 4cb5 a43d 8a44 bf3c
000002a0: 0102 d1bc 50d8 023d 51d2 95bc 489d c63c
000002b0: d380 08bc 647f 0abd d982 c53c 1760 5ebd
000002c0: 51f1 293b f57d 3fbd 4312 1abb c80c 64bd
000002d0: 0b72 8a3d 8f69 0bbd a5c8 a1bd e04c 853d
000002e0: 23d1 a4bd f08e 65bd 6302 66bd 1524 89bc
000002f0: edee a0bd d594 a5bb be8b b7bd aad2 573d
00000300: 911b adbd 57fa b2bd 29ea 833c 5ae1 20bd
00000310: 59f5 45bd 61fa 18bc 550e 89bd fcdd 95bd
00000320: 073c 3c3d a2fc acbb b0b7 1d3d c0bd 84bd
00000330: 9cb6 53bd d5a8 c439 ad66 cabc 2466 1f3c
00000340: d186 543d 8213 88ba bc5e 363d 0118 b8bd
00000350: 6724 8dbd 81c4 723d 5e5a eabd e973 813d
00000360: 6ffa 8cbd ef36 17bd 0083 9b3d 41ea 653c
00000370: 2e9b 87bd bbcf ccbd 4f1b 6fbd a1ef d3bc
00000380: 965e 7dbd 49d6 c63c ee54 89bc 8289 b9bd
00000390: b1dc 8fbc 3658 b63c cebb 79bc a8b2 0fbd
000003a0: 1f36 7bbd fb1e 0ebb 9c15 593d 3073 713d
000003b0: e168 61bd 5aad 7fbd 467a 8b3d 110a a6bd
000003c0: aadb 833d 51f1 a83d 35d5 8b3c 786c bbbd
000003d0: d56b 5e3a dd8e 0e3b 3c7d b43d 3b7c ea3c
000003e0: 5aed 8cbb 6ccc ed3c 6670 9cbc 7c48 603d
000003f0: 1332 55bd ed65 3d3b 33ea 9bbd f4a9 85bc
0.01658388 -0.06329766 -0.06031001 -0.059142496 -0.07814883 0.022784298 -0.056272592 -0.059545476
0.0029712177 -0.027541947 0.030515248 -0.052512895 -0.017244793 0.0778187 -0.024529899 -0.037225127
-0.039646674 -0.07904362 -0.059110753 -0.08235912 -0.01780597 0.05045592 0.005336562 -0.08464126
0.02797036 0.07133374 0.0620188 0.017828105 -0.1264882 -0.08316567 -0.051708907 -0.091421634
0.00874833 -0.06868788 0.012010939 0.06979801 -0.042242955 -0.054405764 0.010730419 0.0028738636
0.06728844 -0.018252142 -0.06986397 0.023795173 0.04897158 0.010611965 -0.03247105 -0.043635942
-0.08782202 0.062176548 -0.033061296 -0.020827154 -0.055256832 0.07761354 0.0018786269 0.018806191
-0.11715551 0.032907296 -0.07189766 0.014444107 -0.0019684252 0.0075289225 -0.00880579 -0.01094621
-0.044217654 0.0018288314 0.003823195 -0.020878976 0.043033544 -0.05606303 -0.039717976 -0.042460173
0.039555978 0.00890493 -0.025966816 -0.016107138 -0.050198413 -0.09134894 0.0027072069 -0.07730729
0.03457062 -0.06723985 0.012672225 -0.07601951 -0.06944971 -0.066412054 0.035883337 -0.07329239
-0.02033609 -0.04016101 -0.0019137762 0.030442415 -0.1132653 -0.035236154 -0.037423443 -0.025150027
0.016759329 -0.08118202 -0.05559117 -0.019093404 0.011904637 0.038777847 -0.023492107 0.062361974
0.04164232 0.017627938 -0.08422877 -0.019358413 0.00290523 0.05324103 -0.034733873 -0.0071487725
0.037728723 -0.098769106 0.046886034 0.012137128 -0.08352083 -0.06476124 -0.0030807198 0.07593604
-0.052589264 0.07521568 0.041968428 -0.072534755 -0.03997866 -0.057443656 -0.098767996 -0.044230755
-0.056187462 -0.09354953 -0.006438293 0.01533833 -0.068693385 -0.026615785 -0.070757285 0.023079716
-0.06553678 0.02300946 0.028122218 -0.07527452 -0.02805257 -0.03300299 0.024275439 -0.028702836
0.002016987 -0.040277988 0.066010654 0.03171343 -0.081423104 0.08152269 -0.05132558 -0.025981193
-0.08707276 0.06165048 0.047183774 0.06995737 0.006276075 -0.047768082 0.02341152 -0.04977368
0.063184515 0.061352763 -0.07992079 -0.0420509 -0.046739105 0.02643681 0.08042392 0.023348112
-0.02551365 0.031944573 -0.018288763 0.02424492 -0.008331495 -0.033812895 0.024110245 -0.054290857
0.002593119 -0.04675098 -0.002350942 -0.05567625 0.06760033 -0.034036215 -0.07899598 0.06508803
-0.08047702 -0.05604452 -0.05615462 -0.016740838 -0.078580715 -0.0050531426 -0.089622006 0.05269114
-0.084525235 -0.08739155 0.016102867 -0.039277412 -0.048329685 -0.009337039 -0.06692187 -0.07317731
0.045955684 -0.0052791396 0.038505256 -0.064815044 -0.05168782 0.00037509823 -0.024707163 0.009728942
0.051886383 -0.001038179 0.04452394 -0.089889534 -0.06891709 0.059269432 -0.114430174 0.06320936
-0.06883704 -0.036917623 0.07593346 0.014032901 -0.06621395 -0.10000559 -0.058375653 -0.0258711
-0.061857782 0.024272101 -0.01676413 -0.09059431 -0.017561289 0.02225886 -0.01524253 -0.03508249
-0.06133091 -0.0021685946 0.052999124 0.058947742 -0.05503166 -0.06242118 0.06810431 -0.08107389
0.06438382 0.082491525 0.017069438 -0.09151548 0.0008484696 0.0021752634 0.08812949 0.02862369
-0.0043007554 0.02902814 -0.019096565 0.054756626 -0.052049708 0.0028899864 -0.07613029 -0.016316392

sequential_2/conv2d_2/Conv2D f4 [64, 3, 3, 64]
00000000: c2a4 663d 0114 af3b d5d0 0ebe 9423 88be
00000010: 5e12 f6bc a366 cfbd 842e 773e 0540 68be
00000020: be17 c0bd 914c a13c adde 0f3c 7e91 823c
00000030: 29ea 2cbe ae47 983b c722 273e 140a 3ebe
00000040: 0af4 47bd a082 e4bc f6b5 d5bd 4177 f53d
00000050: c9d7 afbb 9766 d63a f414 1cbe 8190 a3bc
00000060: db94 eabe 1920 bfbb 31a0 0d3e 561e 90be
00000070: 4005 0ebe 2925 473e 1a44 753d 64d0 5d3b
00000080: 80e7 973b 0621 adbe 9664 8d3d cb91 01bf
00000090: 8c5b e1bc 8e94 b8bc 63bc 87be 758e 1a3d
000000a0: 901b c5bd 00e7 51bd 9cae 2bbe f558 4d3d
000000b0: 0559 82be 872e 823c 51df 93bc 11fe a73b
000000c0: 2de3 d9bd 06a0 dcbd 6e8a 623d 97ae 333d
000000d0: 6203 6fbe 9552 07be e34b 3c3d 3dbc c93c
000000e0: ca70 82bd 55e6 993d 3fd1 3c3d 1a75 323d
000000f0: 391f debb a4c0 8f3c a4f9 c0bd 3d2c 06bc
00000100: 1f5f 603d d9cc a53c 0aa5 663d 8286 9cbe
00000110: 8023 693d 65ad 5e3d 0023 c33b 3dc1 aebe
00000120: 7509 cbbc a904 6dbc 70a6 d73c 05d3 c4bd
00000130: 4213 e43d a4c2 a93e 929b df3d 88df 9bbc
00000140: 94a3 42bd 42a0 423e 4733 dbbd 6c93 963d
00000150: 2afe 08bd ffde 51bd f0e4 05be d165 1abd
00000160: e230 15bf a3c8 61bd 3c1c 3c3e 3dc8 26bf
00000170: 01c6 93bd 3507 00be a965 8cbb 94e6 523d
00000180: c75e bcbc 8a6b 63be 0dc7 283d dd92 3cbe
00000190: 6ea4 adbc 0126 8a3d fb8a 8cbe 5bcf 173c
000001a0: f045 bfbe 7e91 dfbc cd71 2cbe ebb1 f03c
000001b0: 6fba 9fbe c397 5fbc b1c1 aabb b13e bf3d
000001c0: 521c 0fbd c2d3 a2be 37d6 07bd 5350 0abd
000001d0: 9309 83be d0d8 b9bc ea57 2d3d 0542 433d
000001e0: fb5f 903c 0f07 213e 5d24 04bd 0af3 85bb
000001f0: 434a 23be 8c72 dc3d 6881 923d af70 eb3c
00000200: a169 a9bc 1ee8 17bd 7c77 41bd ad0e 1bbe
00000210: a554 be3a c1d7 3b3d e314 123e 2c3b 84be
00000220: f25d 9b3d 1c96 5e3d 8a66 773b 17df 613d
00000230: 3b75 5fbd 9208 8abc 7029 2a3e ec21 a53e
00000240: b038 8cbe dea8 89bc f11e cfbd 6135 cfbd
00000250: 71ac 41bd dc62 963d 2356 f1bd 2549 95bb
00000260: 642b 52be 8984 a63d aff8 47be 26c6 13bf
00000270: c226 d5bd 04eb 03be c564 65bd 0602 643d
00000280: 46ec 24bd 5e47 54bd 8e58 b23a b242 87be
00000290: 926c 9c3d aa08 6e3c 8798 423d 5c2c 93bc
000002a0: 7774 3fbe 915e 173d 51d6 46bd 7482 4c3d
000002b0: 7f14 bdbe 5ce1 053e 6b06 f2b9 c707 833e
000002c0: d1a6 acbd 895e 98be 027b 1cbd d103 02bd
000002d0: 75e1 6dbd 5206 2c3d 766c e13c b34b 623c
000002e0: 5edc 573d f595 733e eaa4 373d 49f5 a3bc
000002f0: f0e1 843d cb34 b33d 165c 4e3d c071 323d
00000300: 3da2 573d 793c 8e3c 56b6 5b3d e785 b2be
00000310: 58e5 4e3d b77d b2bd b5c9 0b3d a93a 16bf
00000320: 2c5e 68be bf66 813c f23a 51bd 9898 46be
00000330: e4c7 613c bf65 57bd 3a69 1c3e 5e38 19be
00000340: de11 523c 1587 e43d dd9c f7bd 20d8 793e
00000350: 27a8 43bd 642d a93c 2102 eebd 2a22 2bbb
00000360: 2ddb a2be ce7e b93c 374c 333e cb8f 18bf
00000370: b319 0dbe f787 163e 4353 99bd 6bd5 04bd
00000380: 7235 133d d889 f8be c147 9d3c 3031 8ebe
00000390: 0b6c 36ba e127 ef3c fcd6 89bd 6ff3 69bc
000003a0: 47fb 82bd 6198 7f39 6a48 fabd 19c6 b03d
000003b0: 7bd2 28be 3611 bbbc c433 c0bc 9197 6a3d
000003c0: 7408 18be cc72 22bd 78ca 623d d64b c93a
000003d0: 0182 a7be 17be 84bd cca0 39bb 662e 52bd
000003e0: 38a0 12bc d07c 743d 08ef 0e3e 4b45 793d
000003f0: 4b3e 4bbe fcd8 f7bd 6e7d 04b8 d70a 89bc
0.05630947 0.005342961 -0.1394685 -0.26589644 -0.030038055 -0.10126998 0.24138838 -0.22680672
-0.093795285 0.01968983 0.008781117 0.015938517 -0.168862 0.0046472168 0.1632186 -0.18558532
-0.04881672 -0.027894318 -0.10435097 0.119856365 -0.0053662998 0.0016357478 -0.15242368 -0.019966366
-0.45816693 -0.0058326838 0.1383064 -0.28148144 -0.1386919 0.19447769 0.0598794 0.0033846134
0.0046357512 -0.33814257 0.06903951 -0.5061309 -0.027509473 -0.022531774 -0.26510915 0.037733514
-0.09624398 -0.05124569 -0.16765827 0.050133664 -0.25458542 0.015891327 -0.018050821 0.0051267226
-0.106390335 -0.107727095 0.055307798 0.043867674 -0.23341134 -0.13215096 0.04597081 0.024625892
-0.06369169 0.075146355 0.04609799 0.043568708 -0.0067786244 0.017547913 -0.09422615 -0.008189258
0.054778215 0.02023928 0.056309737 -0.3057137 0.05691862 0.05436458 0.0059551 -0.34131804
-0.024784783 -0.014466443 0.02632448 -0.09610561 0.11136486 0.33156312 0.109183446 -0.019027486
-0.04751928 0.19006446 -0.1070314 0.07352337 -0.033445515 -0.051238056 -0.13075614 -0.037694756
-0.58277714 -0.055122983 0.18370146 -0.6514929 -0.072155006 -0.1250275 -0.00428458 0.051489428
-0.022994412 -0.22208992 0.041205455 -0.18415399 -0.02119657 0.0674553 -0.27449784 0.009265746
-0.37358046 -0.027291056 -0.16840287 0.029381713 -0.31196925 -0.013647023 -0.005211078 0.09338129
-0.034939118 -0.31802183 -0.033163276 -0.03376801 -0.25593242 -0.022686392 0.04232017 0.047670383
0.017623892 0.15725349 -0.03226124 -0.0040878104 -0.15946297 0.107640356 0.071535885 0.028740255
-0.02068025 -0.0370866 -0.04723309 -0.15142317 0.0014521076 0.045860056 0.1426578 -0.25826395
0.07586278 0.054342374 0.0037750327 0.055144396 -0.05455516 -0.01684979 0.1661737 0.32252443
-0.27387 -0.016804155 -0.101133235 -0.10117603 -0.047283594 0.07343075 -0.117840074 -0.0045558386
-0.20524365 0.08130748 -0.19528459 -0.57724226 -0.10407783 -0.1288262 -0.056004304 0.055665992
-0.04026439 -0.051825874 0.0013606714 -0.26418072 0.07637896 0.014528433 0.047508743 -0.017965488
-0.18696772 0.03695542 -0.04854423 0.049929097 -0.369297 0.13074249 -0.0004616262 0.2559187
-0.08430255 -0.29759625 -0.038203247 -0.03174192 -0.05807634 0.041998215 0.027517539 0.013811993
0.052700393 0.23787673 0.04483501 -0.020014422 0.06488407 0.08750304 0.05038079 0.04356551
0.052644957 0.01736282 0.053640686 -0.34867784 0.050511688 -0.087153845 0.03412791 -0.5868326
-0.22692174 0.015796063 -0.051081605 -0.19394147 0.013780568 -0.052587267 0.15274516 -0.14962909
0.012821643 0.11158577 -0.12090466 0.24398851 -0.047767784 0.020651527 -0.116215 -0.0026112893
-0.31807843 0.022643473 0.17509542 -0.5959441 -0.13779335 0.14700304 -0.07486584 -0.032430094
0.03593964 -0.48542666 0.019199254 -0.27771902 -0.00069588487 0.02919382 -0.06730458 -0.0142792305
-0.063955836 0.0002437546 -0.12220843 0.08631534 -0.16486542 -0.022835355 -0.023462184 0.05727345
-0.14846975 -0.03966026 0.05536887 0.0015357684 -0.32716373 -0.06481569 -0.0028324602 -0.05131378
-0.008949332 0.059689343 0.1395837 0.0608571 -0.19847982 -0.12101933 -3.1588068e-05 -0.016728802

sequential_2/conv2d_3/Conv2D f4 [64, 3, 3, 64]
00000000: 69bb b23e aa46 273d 7ffb 2b3d d08d 993c
00000010: f067 2c3d 1e6f aebe c9b4 843e 2da0 533e
00000020: 6976 53bc 31e3 f6bd 6ac9 033c fe02 053e
00000030: ae6d 283e c8e3 613c 75a1 37bc f7b8 53bd
00000040: d9c2 5e3e 2b10 81be dc66 083d a268 d8bd
00000050: 93a4 623d a625 903e bf56 1dbf 0966 28bd
00000060: b290 4f3d df5e 1e3d fc59 5abd 74c6 01bd
00000070: ec90 8dbe 41ad 893c 00f6 743d cfc0 6bbe
00000080: c5d6 c33a 43fa bdbb 4bc8 52bd bd0f 30be
00000090: 7d0f 983c c1a9 a1ba 19ae a4be 80f9 1b3d
000000a0: b45c d3bd 897c 043d 7555 0bbd 10aa cebb
000000b0: 58f2 653d 4b3a 03be 057e dfbc 2c0c 2b3e
000000c0: 8a34 e73a 5337 d9be 2143 f33c 9be4 dd3d
000000d0: 7a75 233b 4160 bdbd 90f9 383d bcf1 d6bc
000000e0: 1725 2dbd 498d 5c3e 2aa5 a73d 4a08 f43d
000000f0: 20dc acbc 20de 7c3d 79e6 48bd 75c4 353d
00000100: a728 583e cc90 fa3c 1f22 0abd 6cf2 f4bc
00000110: 3ce7 813d aac3 b5be ac82 9a3e ad7e 913e
00000120: af0f 353d ef09 cdbd 17a6 a43b 1086 13bd
00000130: 8677 123e 63c8 ac3c b1b4 c63d 7a0b 1abe
00000140: e2ff 8a3e d6c7 42be 116f ea3b f4fd 03bd
00000150: a720 303d 1c7c e23d ae15 3bbf a37e 8cbd
00000160: b3dc 91bd f74d 81bb f472 753d 1bed 8abd
00000170: 0afd acbe 9651 db3d 446e 423d b23d c1be
00000180: 83c8 74be d0eb 00bd a678 78bd b2a3 acbe
00000190: c356 74bd 96d3 7ebd 5553 bebd 6cdf 11bd
000001a0: 3b91 89bc 1d14 2e3d beca 063d 83b6 493d
000001b0: 0886 acbc 7a77 f43d b9bb cc3d c90f 2f3e
000001c0: 0db1 fbbd 7b81 08bf cc90 2c3e 02e0 0e3e
000001d0: 2077 0d3d 89a3 f53c 68a0 a6bb 4ea1 263d
000001e0: e924 7abd 41d8 213e 2f51 fbbc e83a 49bc
000001f0: 5e47 773d e5bf 9abd 9b76 9ebd 4abf 35bc
00000200: 5463 513e 5239 7abd 3bb9 543d db5d 50bc
00000210: d8fa cdbc 4ab4 dabe 9b51 613e 5c7a 6e3e
00000220: fe96 6d3d 04ff b5bc f86a 39bd e0b4 c9bd
00000230: f35f fa3d cc1c 03bd 01f7 a03d fe3a c5bd
00000240: 5c65 663e a261 acbe c211 d73d fef0 efbd
00000250: b70d d8bc 22b1 3a3e 9d2e 3fbf 1736 163d
00000260: b580 153d ed83 1ebd 42b3 383d 9bb3 653d
00000270: d34f 05bf b40d 183e d6c8 f63d e559 dfbe
00000280: 5435 8abe 3563 eaba e6b4 7dbc a6c4 47be
00000290: b8f3 1cbc d04a 2f3d bd84 52bc 167a 22bd
000002a0: 3060 b03c b9e6 69bd a521 1c3c f4b2 2dbd
000002b0: 2193 fe3c 5418 a7bd d60b 76be 6ad3 913d
000002c0: b314 1a3c 117e 58bf 1f97 323e 6963 f63d
000002d0: ca82 edbd f06a bb3d 2703 b1bd 84cd 62bd
000002e0: 00b0 9b39 fa16 843d a264 96bd 53c8 d0bd
000002f0: 9ca6 0ebd 1454 3d3d cab1 d5bd ac77 96bc
00000300: 8274 9b3e 88ef 6bbd 3621 98bd 66bb 81bd
00000310: 3456 8a3c 2f54 72bd ccb2 63be a32f debe
00000320: 5134 273d f826 17bd 4897 ab3d dfa3 bebd
00000330: d526 bfbe e0c2 583c 564a 96bc 84aa 9ebd
00000340: bf6f 16be c884 f63d 7115 5abc 827c c2bd
00000350: 5f08 983b e8ca 283e e1bb 90be ef95 f53c
00000360: 8374 9abd 24e4 1dbd 8868 073d 17ac d0bd
00000370: 420e 8fbd 81bf 283e 37d4 dd3d eded 17be
00000380: 92cf 29bf 6a28 b7bc 435b 673b 6019 40bd
00000390: 508e a73b 0772 56bd 1031 c3bd 9cd1 44bd
000003a0: b623 97bc f6f9 713d 934a 3f3d c312 24bd
000003b0: d015 6c3c d143 f7bd 3435 18be d06f 3a3e
000003c0: ea46 713d 7a3b 363e 2fe5 473c 9f1c a3bd
000003d0: bb18 4c3e 16f4 0f3d 7d72 40bc a03d 61bc
000003e0: f82c 873d e318 90bd 1911 c43c a101 353e
000003f0: e209 00bc afd3 c4bb edc9 06bd eff6 b7bd
0.34908608 0.040838875 0.041987892 0.01874438 0.04209131 -0.3406915 0.25919178 0.20666571
-0.012906649 -0.12055052 0.008043626 0.12989423 0.1644809 0.013787217 -0.011207928 -0.051690068
0.21754016 -0.25207648 0.03330122 -0.10566832 0.05533273 0.28153723 -0.6146049 -0.041112933
0.0506751 0.038664695 -0.053308472 -0.0316834 -0.2764963 0.016806247 0.059804916 -0.2302277
0.0014941326 -0.005797656 -0.051460546 -0.17193504 0.018562073 -0.0012333916 -0.32164076 0.03807974
-0.10320416 0.03234533 -0.034017045 -0.006306894 0.05613932 -0.12815206 -0.02728177 0.16703862
0.0017639559 -0.42425022 0.029695095 0.10834619 0.0024941848 -0.092468746 0.045159876 -0.026238315
-0.0422717 0.21538271 0.081857994 0.119156435 -0.021101058 0.061735272 -0.04904792 0.04437681
0.21109258 0.030586623 -0.033723947 -0.029900752 0.063429326 -0.35500842 0.3017782 0.28416958
0.04420441 -0.1001166 0.0050246823 -0.036016524 0.14303407 0.021091646 0.09702433 -0.1504344
0.27148348 -0.19021544 0.0071543534 -0.03222461 0.04299989 0.11058828 -0.73079956 -0.068600915
-0.07122173 -0.0039460617 0.05992408 -0.067835055 -0.33786803 0.10708921 0.04746844 -0.37742382
-0.23904614 -0.03147489 -0.060661934 -0.3371864 -0.059653055 -0.062213503 -0.09293238 -0.035613462
-0.016792884 0.04249965 0.032908194 0.049246322 -0.021060005 0.11936851 0.09996743 0.17095865
-0.12289629 -0.5332257 0.1685211 0.1395264 0.034537435 0.029985206 -0.00508504 0.040681176
-0.061070357 0.1580515 -0.03067836 -0.012282111 0.060370795 -0.07556132 -0.07737466 -0.01109297
0.20448047 -0.06108982 0.051934462 -0.012717689 -0.025144026 -0.42715675 0.22003786 0.23288864
0.058005325 -0.022216327 -0.04526803 -0.09848952 0.12225332 -0.032009885 0.07859612 -0.096303925
0.22499603 -0.33668238 0.10501434 -0.117158875 -0.026373727 0.18231633 -0.746805 0.036672678
0.036499698 -0.038700033 0.04509283 0.05607949 -0.5207493 0.14848977 0.12050025 -0.43623272
-0.2699381 -0.0017882349 -0.015485024 -0.19508609 -0.009579591 0.042795956 -0.01284903 -0.03966721
0.02153024 -0.0571048 0.009529506 -0.04240699 0.031076016 -0.08158937 -0.24027953 0.07120402
0.009404349 -0.8456736 0.1744046 0.1203068 -0.11597212 0.09151256 -0.086431794 -0.055371776
0.00029695034 0.06449695 -0.07343413 -0.10194459 -0.03482686 0.04622276 -0.10434301 -0.01836761
0.30362326 -0.05760148 -0.074282095 -0.063345715 0.016886808 -0.059162315 -0.22236174 -0.4339572
0.040821377 -0.036902398 0.08378464 -0.093086 -0.37334314 0.013230056 -0.018345993 -0.07747367
-0.14691065 0.12037045 -0.013310776 -0.09496404 0.00463967 0.16483653 -0.2826834 0.02997872
-0.07541754 -0.03854765 0.033058673 -0.101890735 -0.06985141 0.16479303 0.108314924 -0.14836855
-0.6633235 -0.022358138 0.00353022 -0.0468992 0.0051134005 -0.05235484 -0.09530842 -0.04805146
-0.018449645 0.059076272 0.04670198 -0.040056955 0.014409497 -0.12073482 -0.14864045 0.18206716
0.05890552 0.17796126 0.012200638 -0.079644434 0.19931309 0.035144888 -0.011746046 -0.013747603
0.06600374 -0.07035997 0.023933934 0.17676403 -0.007814856 -0.00600668 -0.032907415 -0.08982646

sequential_2/conv2d_4/Conv2D f4 [64, 3, 3, 64]
00000000: 1195 c2be 39b1 693d 6d5c de3d ee39 9b3e
00000010: 8a6e ddbb a1cf 223e 0eb6 693e 4eea eabe
00000020: daa8 74be 6845 2e3e 239a b83e d62c 3b3e
00000030: 107e 133d 7d8c 5ebd 4435 833d 490b 323e
00000040: aee0 5cbe a52e 7e3d ca53 db3e 8bf7 b03d
00000050: 2f28 f6bc 06e0 bcbc fb0b c13e e397 6cbe
00000060: a691 e03c c3a1 8a3d 696c d0bd 92b8 c43b
00000070: 057f 093e c3d9 8d3d 1b89 5e3d ec52 c3be
00000080: 1572 8bbe c83b c3be 2ca2 b93e 9b38 c93d
00000090: ed3f b8bd e96c b43d 7046 2d3b a66f 273e
000000a0: dc89 973a 8324 bfbd e8b0 c0bd aa16 853e
000000b0: 8131 66bd e5ee 20bc ed27 9cbe e060 c4bc
000000c0: 9508 933e c022 8dbe ae5f b93d b498 02be
000000d0: e81e 0c3d 5704 97bd cdd2 7d3d b26a 77be
000000e0: 616d 23be 12a9 7b3e 0f20 24be 795f 3dbe
000000f0: 371a e7bd efa0 81bd 21b6 25be 5895 ab3e
00000100: 5a53 42be db03 81bd 3c21 303d 38ea 0abd
00000110: d7af 7b3d 01e9 cc3d 904b da3c 2fe3 89be
00000120: 5cad bebe b1a1 263d 73b9 513e ee5e e63d
00000130: 976f babd e662 ecbd f85f 9bbe 91c3 b3bd
00000140: e897 94bd a6aa 263c 43b6 bb3e 1cce c7bc
00000150: 9f27 5a3d 6a92 723d 7dbe b83d 4a97 333d
00000160: 28aa 5d3d cde7 f53d 8790 c6bc d46c 00be
00000170: 0b38 d2be e528 b93d 82a3 413d b47e ecbe
00000180: fe66 42bd 5e2d c1be ce1f 3c3e 352b 6abd
00000190: 00d0 81bd 4648 143a 8ec8 63bd 13b3 203e
000001a0: 3dc4 95bc 9c15 80be 7d9b 06be 8828 4d3e
000001b0: eab5 87bd 0ebe 8abe 118e bcbe 7ce9 99bd
000001c0: 48c9 debd 9f14 a7be 9701 b13a f2df e8bc
000001d0: 22f3 493d 9cd8 1f3b 79e0 813c c490 ffbe
000001e0: cef1 59be 5943 8a3e 25c3 9bbc e48f 90be
000001f0: 6098 83bd 3f3c 62bd 7dbd fabd 7be2 2a3e
00000200: db8e 8fbe a9ad 1bbe 7478 ef3d d096 0fbd
00000210: 5797 383e f837 883d 1e86 95bd 246c 89be
00000220: 7ae4 15bf 98c4 e0bd 753e 783d 8afe 90bd
00000230: d2d7 babd 3a5e 74be 21ee 89be 21e3 b43d
00000240: f1bb a43e ac3c 4bbe 0e1a cc3e eafe 363d
00000250: fe39 9d3d 5be3 683e f55c 1a3e a5de 223e
00000260: 5583 ee3e 5834 6f3e bf2a 93bd d276 b9bc
00000270: a167 15be 2574 8d3d a5bf 073d 3930 e5be
00000280: ab72 b9bd 6b49 efbe 9057 ca3e 31cc bc3c
00000290: 37f0 efbd 483f 273e 577f 18bd 9d16 553d
000002a0: dab9 72bd 237f 41be 0a98 ccbd e14d 79bc
000002b0: 9728 06be 2340 bfbe ff8f c4be 8056 97bc
000002c0: efbf 373e b5dd 03be 862b 703e 3d1c b13d
000002d0: 0205 b13d 0b64 68bd 52ea a6bd 67d0 e5bd
000002e0: 936a 14be f661 af3e abf4 5c3e fc52 01bf
000002f0: 1811 8fbd c0da 2cbc a9a7 3abe 219a 353e
00000300: 0de9 e7be d432 023c 8c43 ff3d b7a7 cd3e
00000310: 298b 37be 6584 f53d b686 c93a 7259 00be
00000320: f772 e5be d6f6 57be fcfd 9d3d e612 173e
00000330: ccc9 483d 344a 0a3e ad06 00be 31dd 483e
00000340: ddfd 92be ef2e 58be 8c59 4ebe 32c9 1c3d
00000350: 98ee 8cbd 5900 dcbd 58cb b63d 85be bebe
00000360: 323b 44be c158 8e3d 72ff ab3d 1671 913e
00000370: b92f c0be 6c63 a23d 0ad6 ae3d 54cb 99be
00000380: 4760 133d 9473 91be ebb0 b63e 6dca 4fbd
00000390: 4e8a 643d edf6 c1bd 396b b73c 0fd5 083d
000003a0: 9c14 44be 3a56 25be f517 983d c1a9 853d
000003b0: c5a7 abbc 715e 1f3d 18dd 71be 6fa3 80bc
000003c0: 556b 32be f99d 093e 7f99 5a3e b9d6 3c3c
000003d0: 3361 dd3e d136 e1bb 8561 283c d35a 39bc
000003e0: 993a 1bbd def7 603e 7061 e6bd 29dc b5be
000003f0: 65e9 a0bd 5c0b 6f3d 0752 84be a5ff 493d
-0.38004354 0.05705378 0.108574726 0.30317634 -0.006757562 0.15899517 0.22823355 -0.45881885
-0.23892537 0.17018664 0.36055097 0.18278822 0.036008894 -0.0543332 0.06406644 0.17387117
-0.21570083 0.062056202 0.42837363 0.08640965 -0.030048458 -0.023056041 0.37704453 -0.23104815
0.0274132 0.06769135 -0.101769276 0.006003448 0.1342736 0.069263004 0.054329973 -0.38149202
-0.27235475 -0.38131547 0.3625654 0.0982525 -0.08996568 0.088098355 0.002643969 0.16351184
0.0011561471 -0.09333136 -0.09408742 0.25993854 -0.056199554 -0.009822582 -0.3049921 -0.023971975
0.28717485 -0.27565575 0.090514526 -0.12753564 0.034209162 -0.07373875 0.061968613 -0.24161795
-0.15959693 0.24576214 -0.16027854 -0.18493451 -0.11284297 -0.06329524 -0.16182758 0.33512378
-0.18977109 -0.062995635 0.043000445 -0.033914775 0.06144699 0.100053795 0.02664736 -0.2693114
-0.37241638 0.040681545 0.204809 0.11248575 -0.09103315 -0.11542301 -0.30346656 -0.08777536
-0.07255536 0.010172522 0.36662492 -0.024390273 0.053260442 0.059221663 0.09020708 0.043845452
0.05411735 0.12007103 -0.024238838 -0.12541515 -0.41058382 0.09041003 0.047275074 -0.46190417
-0.047461502 -0.37729925 0.18371508 -0.05717011 -0.06338501 0.00056565215 -0.055611186 0.15693311
-0.01828205 -0.25016487 -0.13145252 0.20034993 -0.06626494 -0.27098125 -0.36827138 -0.07515237
-0.10878235 -0.3263292 0.0013504502 -0.028427098 0.049304135 0.0024390584 0.015854107 -0.49915135
-0.21283647 0.27004507 -0.01901395 -0.2823478 -0.064255476 -0.055233236 -0.12243173 0.16687958
-0.28038678 -0.15202965 0.116928965 -0.035055935 0.18026482 0.066513 -0.073009714 -0.26840317
-0.5855175 -0.10974997 0.06060644 -0.070797995 -0.09123196 -0.2386407 -0.2693949 0.08832384
0.32174638 -0.19847363 0.39863628 0.0446767 0.07677077 0.22742979 0.15074523 0.15905245
0.46584573 0.23359811 -0.071858875 -0.022639666 -0.14590313 0.069069184 0.03314175 -0.44763353
-0.09055074 -0.467357 0.3951993 0.023046585 -0.11715739 0.16332734 -0.037230816 0.05202352
-0.059259273 -0.18896155 -0.09989937 -0.015216322 -0.13101421 -0.3735362 -0.3839111 -0.018473864
0.1794431 -0.12877543 0.23454103 0.08647964 0.08643533 -0.056736033 -0.08150162 -0.1122139
-0.1449378 0.34254426 0.21577708 -0.5051725 -0.06985682 -0.010550201 -0.1822802 0.17734577
-0.4529499 0.007946689 0.124640554 0.4016702 -0.17924179 0.11988143 0.001537523 -0.1253412
-0.44814274 -0.21090254 0.07714459 0.14753303 0.049020573 0.13504869 -0.12502547 0.19615628
-0.28709307 -0.21111654 -0.20151347 0.038277812 -0.06881446 -0.10742254 0.089255035 -0.3725473
-0.19163206 0.06950522 0.08398332 0.2840659 -0.3753641 0.079291195 0.085369185 -0.3003794
0.03598049 -0.28408492 0.35681853 -0.050730158 0.05579596 -0.094709255 0.022389995 0.033406314
-0.19148487 -0.16146174 0.074264444 0.065265186 -0.020954022 0.038908426 -0.23619497 -0.015702931
-0.17423756 0.13439168 0.21347617 0.011525803 0.4323822 -0.0068729897 0.010277157 -0.011313158
-0.03789768 0.21969554 -0.112490535 -0.3551953 -0.078570165 0.058360443 -0.25843832 0.049316067

sequential_2/conv2d_5/Conv2D f4 [64, 3, 3, 64]
00000000: 9212 7a3d 433b c0bd 6c9b 23be eb62 44be
00000010: c71e 733e cd06 133e 6c4c d6bc a8c8 2c3d
00000020: f8fe e3be b9e6 a63e de3f c9bd 723c d8bb
00000030: bf3c 013f ee54 bc3a 7173 3cbd 59f0 d5bd
00000040: 50d4 f9bc 5224 07be 9d38 84bd c8b4 bdbc
00000050: 4671 a83e f68a b23d 6d33 f6bd 2375 a3bd
00000060: 507f 1cbd 59b9 12be abee 8f3d bc0b bebc
00000070: 75fc 2dbc 3d14 ee3d 26b7 87be 5fbf 053e
00000080: f352 e03e f53a 1d3e 775e 12be c619 0c3e
00000090: b6fc 293d 7234 0d3e 7cbe a7be dcb2 a73e
000000a0: 350c cf3d 7493 18be dc16 54be a098 e53e
000000b0: 3829 4e3d 03a8 843c 7887 10bc eea2 003e
000000c0: eb4f bcbe c2a9 8fbd ccd6 2abd b356 17bd
000000d0: e213 8d3e d564 723d bc38 ab3c e582 a3bd
000000e0: 69b4 fbbc 174c 81bd 04e0 d9be 2c1b 373c
000000f0: 52c5 8cbe acec b5bd 19b6 37be 0176 26be
00000100: 8584 fbbd 08bc 5a3c 14d6 e9bc 6da7 2ebe
00000110: 62c9 1bbd 4411 683e c53a a73d a275 adbe
00000120: a16a 2b3e 4181 733d 7a2e 84be 2d4c 013d
00000130: c38c 8b3e 141f 5e3e 45e2 8abd 17e5 e83d
00000140: c793 2cbd aea4 1b39 deb9 c83d 764b 0c3e
00000150: 3ac3 023d a9c5 943e ae83 e2bd e3b1 773d
00000160: 1329 89bd 4bd3 213e 3314 84bd fd2b e8bc
00000170: c6d4 b3bc 59cd 523e 9b68 b1be 5f18 b9bd
00000180: 388e 403d 7daa b73e 3ae0 2bbe b96b 51be
00000190: ceab 9a3e a091 a73d 9fe9 ed3d af0b 6a3e
000001a0: d927 6abe 8fa0 a2be 320e a93d 6d92 813e
000001b0: 7ea9 49bd 5366 9abd 2d60 a63c adbd a83d
000001c0: e240 57be 9bff 30bd 3cd9 953d 177e 59bd
000001d0: 2e91 003e 1837 3c3e 03de a7bc bb1b 03bd
000001e0: 59d7 e93d 5d4d 5bbd 93ae c23e d5b3 15bc
000001f0: 9419 87be 3182 57bc 21cd 523d 6267 1ebd
00000200: f682 2a3d 3ee0 ef3c 4c49 28be 9a87 6b3e
00000210: 8de7 a5bc 4a89 db3e 9cca 72bd 1254 21be
00000220: 2392 8abd dc1d f3bc b4ae 90be 17b6 603d
00000230: 5b05 983e d643 923d 7568 913e 248f 073e
00000240: b864 6dbd 5e7d 7a3e 9f54 efbd 76f9 443c
00000250: 4fcf 5bbd 0673 e03d fdd8 ae3d 93d5 edbc
00000260: 6c3b 243d ff0c cf3b eec4 0b3e 6db6 afbc
00000270: 8cf3 ca3d e568 2e3e 0926 a8be 373d f5bc
00000280: b350 a33d 63d2 423e 4e49 d6bd e0d0 0b3e
00000290: 7711 923e 9eb7 4a3e e4a0 153e 4406 a93e
000002a0: 191b 813e be95 01bf 04c9 f8bb e8a5 063e
000002b0: cad3 243e ca49 34be 7dcc 7dbe 5b61 6c3d
000002c0: 6009 8dbe bd43 553d 56ef 4cbe 0af8 0b3e
000002d0: 0f48 58bd 9273 493e 3364 9bbd 32d7 f6bd
000002e0: 440c 1abc 7a38 8ebd 687f b43e 4eeb b4bd
000002f0: 3802 bdbd 867c bdbe 8a45 833c df64 bd3d
00000300: e896 5abc 612c abbd a262 45be 4c0c f7bc
00000310: bad4 2c3e 8f71 0b3e a071 4fbe 7265 89bd
00000320: b267 0f3e 26e1 b23d 305b 30bd df46 cdb8
00000330: 8a45 583e ca3f c63c 413a 26bd af40 783c
00000340: d322 f5bd 8639 52bd 75f0 993d 5a7c 1f3e
00000350: 6d42 c93d 0f5c 163d 56d4 0f3c 4e34 863d
00000360: b3ed b5bc 7ff8 b83d 136e b0bd e3a3 bf3c
00000370: 71ad 67bd 3ffd a83d 310b 60bb 1d1d 373e
00000380: 43d2 2b3d 251d 073f 5c79 9b3d 9d30 e53d
00000390: 680d 4fbe c766 e7bd 2801 dcbd 3612 023d
000003a0: 5e5a fcbd 34c0 8fbe 276b 6ebd 6d6f 8fbc
000003b0: 7982 92bd e9a6 50bd 8b36 2abe ca02 803d
000003c0: 9594 50be 03d4 88bd d51c 45bc ad00 083d
000003d0: d6d1 363e c895 fc3d 7959 3fbd 29a2 033d
000003e0: ab34 9dbd 0c84 0a3d 28d9 423d e0ef 193d
000003f0: 1ba1 debd 26ea 98bd 26e6 033d 11df 21be
0.061052866 -0.09386303 -0.15977257 -0.19178359 0.2374221 0.14358063 -0.026159488 0.04218355
-0.44530463 0.32597902 -0.09826635 -0.0065990025 0.50483316 0.0014368573 -0.04600853 -0.10446233
-0.030496746 -0.13197449 -0.064561106 -0.023157492 0.3289892 0.08717911 -0.120215274 -0.079813264
-0.038207352 -0.14328517 0.07027944 -0.023198955 -0.0106192725 0.11624954 -0.2650692 0.13061284
0.43813285 0.15354522 -0.14293848 0.13681707 0.04150077 0.13789538 -0.32762516 0.32753646
0.1010975 -0.14899999 -0.20711845 0.44843006 0.050332278 0.016193395 -0.008821361 0.12562153
-0.36779723 -0.070148006 -0.041708753 -0.036947917 0.27554232 0.059178192 0.020901076 -0.079839505
-0.030725675 -0.06313341 -0.42553723 0.011175912 -0.27494293 -0.08883032 -0.17940558 -0.16255952
-0.122811355 0.013350494 -0.028544463 -0.17056055 -0.03803385 0.22662836 0.08165506 -0.3387881
0.16739894 0.059449438 -0.2581671 0.031566788 0.2725583 0.21691543 -0.06781439 0.113718204
-0.04213312 0.000148433 0.09801076 0.13700661 0.031924464 0.29057053 -0.11060272 0.06047238
-0.066972874 0.15803258 -0.06449165 -0.028341288 -0.021952044 0.20586146 -0.3465012 -0.090378515
0.04701063 0.3587226 -0.16784754 -0.20451249 0.30209202 0.08182073 0.11616825 0.2285602
-0.22866763 -0.3176312 0.08254661 0.25307027 -0.049233906 -0.07539048 0.020309532 0.08239303
-0.21020845 -0.043212514 0.07316825 -0.053098764 0.12555382 0.18380392 -0.020491606 -0.032008868
0.114180274 -0.053540576 0.38023815 -0.009137114 -0.26386702 -0.013153599 0.051465157 -0.038672812
0.0416288 0.029281732 -0.1643421 0.23000947 -0.020252014 0.4287818 -0.059275255 -0.15754727
-0.067661546 -0.029677324 -0.28258288 0.054861154 0.29691586 0.07141845 0.28400007 0.13238198
-0.05795738 0.24461886 -0.11686062 0.012022367 -0.0536645 0.10959439 0.08537481 -0.029032504
0.04009573 0.006318688 0.13649341 -0.021449292 0.09909734 0.17032202 -0.3284152 -0.029936416
0.079743765 0.19025569 -0.104632005 0.13653898 0.2852895 0.19796607 0.14612156 0.33012593
0.25215986 -0.50619113 -0.0075923223 0.13149226 0.16096416 -0.17606273 -0.24785037 0.057710033
-0.27546215 0.052066553 -0.20013174 0.13668838 -0.052803095 0.19672993 -0.07587471 -0.12052764
-0.009402338 -0.06944366 0.35253453 -0.08833943 -0.09228939 -0.37009066 0.01602437 0.09247755
-0.013341643 -0.08358074 -0.19275907 -0.03015723 0.16878024 0.13617538 -0.20258188 -0.06708802
0.140044 0.0873435 -0.043055713 -9.7883625e-05 0.21120277 0.024200339 -0.0405829 0.0151521405
-0.11969533 -0.05132439 0.07516567 0.1557478 0.09827123 0.036708888 0.008778652 0.06552945
-0.02220807 0.09031772 -0.08614745 0.023393577 -0.05656189 0.08251428 -0.0034186358 0.178822
0.041948568 0.52778846 0.07591507 0.11190913 -0.20219958 -0.112989 -0.10742408 0.03175565
-0.12321924 -0.28076327 -0.058207657 -0.017509187 -0.07153792 -0.050940428 -0.16622369 0.06250532
-0.2036918 -0.06681063 -0.0120308 0.03320377 0.17853484 0.12333256 -0.046716187 0.03213707
-0.07676061 0.033817336 0.047570378 0.03758228 -0.10870572 -0.07466535 0.03220191 -0.1580775

sequential_2/dense/BiasAdd/ReadVariableOp f4 [64]
00000000: e152 13bd bff4 133f 4bc6 2d3f a267 cd3e
00000010: b173 8dbd 38c3 5bbd a705 0f3e e509 75bd
00000020: 9978 4c3e 0089 233e 3c09 70be 03b1 86bd
00000030: dac8 d4bc 70fc 7b3d 953d 5ebd 5076 6f3e
00000040: 419e d03e 254b 05be 8982 00bd 4a63 80bd
00000050: 52f9 51bd e694 413e dc1e 11bc f5e2 7abd
00000060: faa6 083f 0163 a3bc 914d 4abd 5da1 a13e
00000070: 6427 1abe 5b85 cd3e 19eb ebbc a16e a6bd
00000080: a6a2 e43d fd87 473e 298a 95be 7e0f da3e
00000090: df89 a3bd 4f2b 2fbe ed8f a03c 40e3 733c
000000a0: 8709 e0bc 4c06 d73e 3cbb 32bd b6ca 08bd
000000b0: 24c3 6bbd 6adb cd3d a95c ca3d b393 b03d
000000c0: 6cec f5bd 0f7a 103e 3fd2 60bd c61d 82bd
000000d0: cb5a 8b3f c436 94bc bd7d 863e b001 86bd
000000e0: 31fc 80bc 20f7 8dbd cae0 283e e65e b8bd
000000f0: a9d8 673d 84c1 9a3e 8c70 a6bd 7395 713e
-0.03596771 0.5779533 0.67880696 0.40118128 -0.06906832 -0.053652972 0.13967 -0.05982389
0.1996788 0.1597023 -0.23441023 -0.06576731 -0.02597468 0.06152004 -0.054257948 0.23384976
0.40745738 -0.13016947 -0.031374488 -0.06268938 -0.05126316 0.18904456 -0.008857455 -0.0612516
0.53379786 -0.01994467 -0.04939038 0.31568423 -0.15054089 0.40140805 -0.028798627 -0.081265695
0.11163835 0.19485469 -0.2920697 0.42589945 -0.07985281 -0.17106365 0.01959988 0.014885724
-0.027348293 0.41996992 -0.043635592 -0.033396445 -0.057559147 0.100516155 0.09880955 0.086219214
-0.120079845 0.14109062 -0.054888006 -0.06353335 1.0887083 -0.01809252 0.26267806 -0.065432906
-0.015745254 -0.06931901 0.16492 -0.090024754 0.056603108 0.30225766 -0.08126935 0.23592167
